naive_tree_search/model_cartpole_3_history_200_return.pt (torch_old, 145328 bytes, 28 tensors)

weight f4 [50, 12]
000000 58 1b 80 3d bb a2 2b 3e 5d a8 a3 bf 9e 01 82 3d
       0.062552154 0.16761295 -1.2785755 0.06347965
000010 58 6e 07 3e cd a5 3d bd bb 24 61 bf 52 0f 5a be
       0.13225687 -0.046300698 -0.8794667 -0.21294907
000020 74 55 d1 3e c9 9c 58 be a2 00 32 bf 36 f1 a0 be
       0.40885508 -0.21153559 -0.69532216 -0.3143403
000030 59 fe e1 bd 2b 89 b6 3d 3d 22 c4 3e b2 2a ee bd
       -0.11034841 0.089128815 0.38307372 -0.11629237
000040 95 fb 3c be 36 df 27 bd b9 bb 14 3f 0e 65 1f be
       -0.18455346 -0.040984355 0.5809894 -0.15565893
000050 8a 43 b1 bd 32 5d 0f 3d ac 3b 1b 3f c9 23 fc 3d
       -0.0865546 0.035000987 0.6063793 0.12311513
000060 76 94 3b 3e a7 98 94 3d ab 51 3a 3f be e8 c0 3e
       0.18318352 0.072556786 0.72780865 0.37677568
000070 86 95 82 3d d4 9a 1a be 3a 32 9a 3f e1 2b 6f 3e
       0.063761756 -0.15098125 1.2046578 0.23356582
000080 08 a7 96 bd 2d 39 91 3d 4a d5 3f 3f 28 2b d1 3e
       -0.073560774 0.070909835 0.7493483 0.40853238
000090 8c d7 99 3e 01 26 a0 3d aa c5 21 bf 4a 14 7b bd
       0.30047262 0.07819749 -0.63192236 -0.061298646
0000a0 f7 ed a7 3d 30 aa 37 3e 37 96 33 bf fe 64 01 3c
       0.08199685 0.17936015 -0.70151085 0.007897614
0000b0 82 b0 fa 3d 37 f3 15 bd cc 52 1d bf cc 56 84 3e
       0.122406974 -0.0366089 -0.61454463 0.2584747
0000c0 d3 17 9d bb 03 88 0c 3e b6 64 32 3e 6f f7 05 bd
       -0.0047941 0.1372376 0.1742123 -0.032706674
0000d0 3a 8c ad be 12 5e 5d 3e 86 ab d4 3e d9 3e ec bc
       -0.33896047 0.21617916 0.41537112 -0.028838562
0000e0 07 22 a5 be c8 f1 bf 3e cc ea 74 3d 3e 18 be 3d
       -0.32252523 0.37489152 0.059794232 0.092819676
0000f0 34 b7 a4 bb 0e 0b ae 3d 2f 17 66 3f a9 49 0d be
       -0.0050267223 0.08498202 0.89879125 -0.1379763
000100 fa 4b 85 be 86 88 23 3e 95 50 52 3f 54 14 49 3e
       -0.26034528 0.15970048 0.8215421 0.19636661
000110 8e 44 18 3e ca 16 ad be a5 81 b9 3f f9 24 e2 3e
       0.14869902 -0.3380645 1.4492689 0.44168833
000120 3c 0d 2e bf be 3a e3 3c 7e 99 13 3e af fe 50 3c
       -0.67988944 0.027737971 0.14414021 0.012756034
000130 38 10 43 bf fd 0f 84 3d c8 11 43 3e a4 50 65 3d
       -0.7619662 0.06448362 0.19049752 0.055985108
000140 54 58 23 bf 47 5b d9 3d 48 f6 db 3e ff c4 b5 3e
       -0.63806653 0.10613113 0.42961335 0.3550186
000150 f9 e5 52 bd dd 4e 8d bc fc 3b 76 3f 14 fa 81 3e
       -0.05148885 -0.017249519 0.9618528 0.25386107
000160 14 4a 92 3e ad 51 20 3d a5 8c 81 3f 27 c1 e6 3d
       0.28572142 0.039140392 1.0121046 0.1126731
000170 95 73 06 3e 35 e2 a5 3d d5 34 89 3f 17 7a 5b 3e
       0.13130029 0.08099786 1.0719248 0.21433292
000180 2d e9 26 3e 7b ac 09 bd c4 8c 1f 3d 5c 86 de 3d
       0.16299887 -0.033611756 0.038952604 0.10865471
000190 c8 ff 3a 3e 63 92 2f be 70 8b 11 3d 3b fd e8 3c
       0.18261635 -0.17145686 0.03553337 0.028441062
0001a0 69 42 95 3e 67 43 cb be 24 68 eb 3e b9 51 21 be
       0.2915223 -0.3969986 0.4597789 -0.15753831
0001b0 0c d9 c6 3d ab e5 8e 3e 40 ea e8 be 62 76 aa bd
       0.09709367 0.27909598 -0.4549122 -0.08323361
0001c0 86 b8 a2 be 78 1f 4c 3e d6 32 29 bf fd fe 50 be
       -0.31781405 0.1993388 -0.66093194 -0.2040977
0001d0 d9 99 91 3c 7f 19 f8 3e 9b 79 08 bf 18 c8 5a be
       0.017773556 0.48456952 -0.53310555 -0.21365392
0001e0 58 79 c6 be 09 38 b5 be 1c 6e 32 bf 1b da cd be
       -0.38764453 -0.35394314 -0.69699264 -0.40205464
0001f0 30 bb 12 bf 0c fa 2f be ed 94 10 bf 6e 92 97 be
       -0.57316875 -0.17185229 -0.5647724 -0.29603904
000200 81 47 03 bf 50 e9 42 3e 3a 86 32 bf 53 46 57 be
       -0.5128098 0.19034314 -0.69736063 -0.2102292
000210 7e 5a 80 bf 76 11 a9 be a7 1f eb 3e 2b 29 e9 be
       -1.0027616 -0.33021134 0.45922586 -0.4553922
000220 00 9b 88 bf 77 58 93 bd fc f3 ab 3d 94 26 98 be
       -1.0672302 -0.07194608 0.08396146 -0.29716933
000230 45 42 9a bf 20 4f 34 be ab e7 a5 3e 72 ff 28 be
       -1.2051474 -0.17608309 0.3240331 -0.16503695
000240 07 84 a1 3d ce 81 81 bd 01 8f cd 3d 49 47 af 3e
       0.0788651 -0.063235864 0.100370415 0.34234074
000250 82 ab a7 3e bb c5 e0 bd 47 d9 60 3d 8c 04 71 3e
       0.32748038 -0.10975214 0.05489471 0.23536891
000260 69 ca 66 3c 4e a2 36 3e 5d 06 1d be f9 f5 23 3e
       0.014086344 0.17835352 -0.15334459 0.160118
000270 c3 34 95 bd 5b 4f 3f bc cd ad 36 3f d7 06 35 3e
       -0.07285454 -0.011676635 0.7135895 0.1767839
000280 e7 e2 6c 3c 50 8f 7b 3e 44 c7 8a 3f 46 1b f4 3d
       0.014458395 0.24566388 1.0842061 0.119192645
000290 79 3e 5e be bf 19 85 bc 5e d0 2c 3f 36 85 0f 3f
       -0.21703519 -0.016247628 0.67505443 0.5606264
0002a0 4e 48 3c be 09 87 6f 3d b5 94 51 bf d6 3d b2 3d
       -0.18386957 0.05847839 -0.81867534 0.087032005
0002b0 be 52 e2 bd ef 50 ae 3d 42 28 84 bf 5c 6a f5 3d
       -0.11050938 0.085115306 -1.0324786 0.11983177
0002c0 ef 14 b7 3d 82 8c 5f be 40 07 7c bf 58 07 d5 be
       0.0893954 -0.21830943 -0.9844856 -0.41607165
0002d0 5b 88 06 3f d7 d1 93 3e d3 42 71 3f 40 95 bd 3d
       0.5255181 0.28871033 0.9424259 0.09256983
0002e0 ad f4 9e 3e 0b d7 81 3d ac b0 0e 3f d7 2e 6d 3e
       0.31046048 0.06339844 0.5573833 0.23162399
0002f0 b3 72 d7 3e 0f 47 69 be af 09 8d 3f f2 c2 8f 3e
       0.42079696 -0.22781013 1.101858 0.2807842
000300 4e 43 c7 be 9c b6 ca 3e cc 51 6a be 9d fb 81 be
       -0.38918537 0.39592445 -0.22882766 -0.25387278
000310 50 31 8e bd 69 ac 2e 3d c7 df 0a bf 8f fa 52 3e
       -0.06942999 0.042644892 -0.5424771 0.20603393
000320 af 0d 88 be da 56 cb 3e 90 1f 45 be e3 5a a3 bc
       -0.2657294 0.397147 -0.19250321 -0.0199408
000330 36 84 1a bd 55 be 71 3d 56 ae 85 bf bd 5a a9 be
       -0.037723742 0.059019405 -1.0443828 -0.3307704
000340 6a 78 04 3e fd d2 10 bd 8e 8d 65 bf 87 de c9 3d
       0.1293656 -0.035357464 -0.8966912 0.09856897
000350 4a e8 19 bd ec 3f 44 3d 86 12 35 bf 98 49 08 bf
       -0.037575044 0.047912523 -0.7073139 -0.53237295
000360 2f 42 5d be d3 8e 1f 3e 79 97 f5 3e 34 14 5c be
       -0.21607278 0.15581827 0.47967127 -0.21492082
000370 94 44 e5 be 6d e8 be 3d 39 f3 fb 3e 99 86 a4 3e
       -0.44778883 0.093216754 0.49209002 0.3213394
000380 a4 dc 4e be 20 91 99 3d d8 cc bd 3e 35 b5 8a be
       -0.20201355 0.074983835 0.37070346 -0.27091375
000390 e7 10 01 3f 37 41 ad be 1e ee cf bb 4b 86 1f 3e
       0.50416416 -0.33838817 -0.0063455245 0.15578572
0003a0 f9 fc f1 3e 2b 6b 28 be 8a e9 92 be 16 af ba 3c
       0.47263315 -0.16447131 -0.286938 0.022788566
0003b0 e0 9c 60 3e 56 2c eb be d8 10 8a be e5 30 0b 3c
       0.21934843 -0.45932263 -0.26965976 0.008495544
0003c0 0a 09 de 3d b6 b6 2f be 02 ff 9f 3e a4 3a 11 be
       0.10841568 -0.17159542 0.31249243 -0.14182526
0003d0 4f 9d 87 3d 07 d3 6f 3e 5f ae 2e 3f db 6c 3d 3e
       0.06621801 0.23420344 0.6823482 0.18498556
0003e0 e4 c0 ea bc 3c 84 94 bd b4 c2 18 3f 36 b0 07 3e
       -0.02865643 -0.07251784 0.59672093 0.13250813
0003f0 03 e2 ca 3e 6e 99 a4 3d 68 32 db 3e 69 bb fc 3b
       0.39625558 0.08037077 0.42811894 0.0077127707

bias f4 [50]
000000 0c eb c1 be 35 46 36 3e 0f 75 91 be 64 ab c1 bc
       -0.3787464 0.1780022 -0.2840962 -0.023641296
000010 03 3d da be 1a b2 34 be 7e d4 cd bb f1 b4 cf be
       -0.42624673 -0.17646065 -0.0062814346 -0.40567735
000020 85 45 1d bf 30 3e 8a be 4f fa 6a 3c b8 3c 4a 3e
       -0.61434203 -0.2700057 0.014341905 0.19749725
000030 40 2b 29 3e 23 9d b4 be 55 87 a3 bd cc 25 a5 bd
       0.16520405 -0.35276136 -0.07984797 -0.0806385
000040 d7 0f 89 bd 6d 4d f6 39 09 46 69 3e c8 e0 0e be
       -0.06692474 0.00046978463 0.22780623 -0.13952935
000050 11 0e 02 3f 44 bb 32 3c aa d1 5a 3e 9a a6 cb be
       0.50802714 0.010908905 0.21369043 -0.39775544
000060 7e 34 12 3e ba a6 f8 be 74 aa 01 be a3 a1 27 be
       0.14277837 -0.48564702 -0.12662679 -0.16370253
000070 ba 98 df be 24 da 9f 3c e7 3b e1 bd ba 48 1c be
       -0.4367121 0.019513197 -0.109977536 -0.15262118
000080 4d 86 3a be a7 56 c9 be 9d 7b 28 be 7e eb a7 bc
       -0.18215294 -0.39323923 -0.16453405 -0.020498034
000090 10 ff 8c be 07 70 1d 3d 60 ee 5e be be 8f 4f bd
       -0.27538347 0.038436916 -0.2177062 -0.050674193
0000a0 33 29 91 be 1b 9e b2 3d b2 2e d3 bd 26 6f 17 be
       -0.28351745 0.087215625 -0.10311641 -0.14788494
0000b0 4a 84 15 3d f9 5f 77 be 4e 80 df 3d 83 0e 51 3d
       0.036503114 -0.24157704 0.10913144 0.05103923
0000c0 50 69 1e bc ee c4 b9 3c
       -0.009668663 0.022676911

weight f4 [50, 50]
000000 83 33 3f bd 30 a4 f0 bd 87 59 bb bd be 3f a8 bc
       -0.046679985 -0.11750066 -0.09147935 -0.020538207
000010 b0 a6 20 bc b9 53 3d be 5c 8c f8 bd 6c 04 e6 3b
       -0.009805366 -0.18488969 -0.121361464 0.00701957
000020 28 47 18 be f1 fb 12 3d c5 d0 32 be 22 2b 49 bd
       -0.14870894 0.0358848 -0.17462452 -0.0491134
000030 5d b5 3d be 5c fe 40 bd 03 a2 a7 bd 0a a1 a4 3d
       -0.18526216 -0.047117576 -0.08185198 0.08038528
000040 4a 73 cb bc 80 6b b8 bd 72 e1 b6 bd f1 d6 36 3b
       -0.024835248 -0.09004879 -0.08929719 0.002789911
000050 ac 64 e9 bb 80 4e 3e 3b 81 8e 40 3c 20 0c 5b bd
       -0.0071225967 0.002903849 0.011752726 -0.05347836
000060 ee c7 94 3c d3 a7 08 be a0 ba 14 3d e1 1a af 3d
       0.01816174 -0.1334527 0.036310792 0.085500486
000070 62 78 25 be ea 6a 0f 3d 59 8a 43 be 83 d0 59 be
       -0.16159204 0.03501407 -0.19095744 -0.21270947
000080 c0 93 03 bd 51 a2 d4 bc 87 de 14 be d3 22 df bc
       -0.032123327 -0.025956305 -0.14538012 -0.027238285
000090 e1 86 9b bc da 25 4c bd 27 44 de bd a5 f1 fd 3c
       -0.018985214 -0.049840786 -0.10852843 0.030999014
0000a0 df 90 76 3d b1 7e 65 3d d8 5d 0d be 26 e0 5b be
       0.060196754 0.056029025 -0.1380533 -0.21472225
0000b0 00 fe 82 bd f8 bb c3 bd 51 5c 4b be 32 9d cc 3c
       -0.06396103 -0.095573366 -0.19859435 0.0249773
0000c0 08 f6 71 bd 56 d7 a5 bb 03 ab 09 bd 76 9a 25 be
       -0.059072524 -0.0050610704 -0.033610355 -0.16172203
0000d0 71 7e 06 3d 5e 74 7c 3b 10 57 b5 bd 7a 16 1b bd
       0.032835428 0.0038521509 -0.088544965 -0.037863232
0000e0 aa dc 24 be a2 c3 c8 bd a8 16 f1 bc 5f 9d 00 be
       -0.16099802 -0.09802939 -0.029429749 -0.12560032
0000f0 6e 78 1b bd 5c 93 14 3d e6 4e 4e bd 82 69 05 be
       -0.037956648 0.036273345 -0.050368212 -0.1302853
000100 49 f3 2b be d7 df 91 bd 0b 28 6b be fc 69 a7 bd
       -0.16792025 -0.07122772 -0.22964494 -0.08174512
000110 9e 07 24 be ea 92 bf bd 56 12 08 be 82 66 3a be
       -0.1601853 -0.093541935 -0.13288245 -0.18203166
000120 87 e9 d5 bd fb 45 08 bd af be 07 3c c5 ec 16 bd
       -0.104449324 -0.033269864 0.008285209 -0.036846895
000130 c2 6f b8 bd 90 e9 6b ba 08 81 04 bd db 46 72 bb
       -0.09005691 -0.0008999342 -0.032349616 -0.0036968503
000140 cc 1e d4 bc 28 0b 4b 3d 6c e1 c9 3d a9 aa f7 3d
       -0.025893591 0.049571186 0.09857449 0.12093098
000150 ff dc 2c be 2e cb 58 3c 0a db f1 bd 0c 69 1e be
       -0.16881178 0.013232036 -0.118093565 -0.1546976
000160 1c 7c a0 bd 40 f6 48 be 9b 90 ee bc 14 bd ad 3d
       -0.07836172 -0.19625187 -0.029121688 0.084833294
000170 9e 04 9c bd 26 df 42 3c ba 6e 5c bb 62 87 b0 bc
       -0.07618068 0.011894023 -0.0033635334 -0.02154893
000180 b0 57 f4 3d bb 0e f9 3c 3e b5 a4 bd a6 87 a9 bd
       0.119307876 0.030402532 -0.08042382 -0.08277826
000190 5c 2a db 3c 44 9f 1b bd da 15 8a bd 7c c8 38 bd
       0.026753597 -0.037993684 -0.06742449 -0.04511307
0001a0 6a be 47 bd 8a a3 43 bd 78 95 f6 bd 1a a7 8c bd
       -0.048765577 -0.047763385 -0.12040228 -0.068678096
0001b0 d5 25 fc 3c 28 d1 d0 bd e1 55 33 3c 49 8b 54 3d
       0.030779758 -0.101961434 0.010945768 0.051890645
0001c0 82 9e 40 3d 77 1f c4 bd 7c 18 a3 bb 20 11 e1 bd
       0.047026165 -0.09576314 -0.004977284 -0.109895945
0001d0 4f f6 ec 3c fb f8 e7 3c 87 db 19 be 5e 40 b9 bd
       0.028926043 0.028316965 -0.1502515 -0.0904548
0001e0 12 ed 41 3d b5 0c 35 be da 2f 80 3d 13 6a 9d bc
       0.04734523 -0.17680629 0.06259127 -0.01921562
0001f0 79 32 34 3d 90 8a 20 be 4e bb 5b bd 0b f1 cd 3d
       0.043993447 -0.15677857 -0.053645425 0.10055741
000200 b2 94 77 bd 13 81 31 3d 82 b7 26 3d 0a 9f 8a 3d
       -0.06044454 0.043335985 0.04070235 0.067686155
000210 29 44 07 be 7b aa 17 be 45 57 eb bd e7 76 2a be
       -0.13209595 -0.14811127 -0.11491255 -0.1664692
000220 bb 20 00 be ff 9b 44 bd ae 73 f7 bc cd ba 1a be
       -0.12512486 -0.048000332 -0.030206528 -0.15110321
000230 45 5a ec 3d 60 34 22 be 87 bc 99 3d 46 b4 47 ba
       0.11540655 -0.15840292 0.07506662 -0.00076181104
000240 3b e8 cc bd d0 73 ad 3c 05 6c 1b 3d a9 20 97 bd
       -0.10005232 0.021173388 0.037944812 -0.07379276
000250 1d a9 21 3d 5b 72 29 be 35 f4 2e be 42 ff 09 be
       0.03946792 -0.1654753 -0.17085345 -0.1347628
000260 ac fe 38 3e 37 ea a5 3d c4 01 0d 3e 2f c5 81 be
       0.180659 0.081013136 0.13770205 -0.25345752
000270 23 6e 6d be c1 16 a6 ba 64 39 44 3e 57 10 a5 be
       -0.23186545 -0.0012671576 0.19162518 -0.3223903
000280 1e b9 08 bf 6d 0c 50 be 62 69 66 3e 8e 1c 90 be
       -0.53407466 -0.2031724 0.22501138 -0.28146785
000290 42 ca 11 be e2 ff 80 be e6 6d 2e be a7 f2 f1 bd
       -0.14237311 -0.25195223 -0.1703411 -0.118138604
0002a0 c6 7f da bd 48 e0 5a 3e 46 2f ce bd 7d a8 a9 3d
       -0.10668902 0.21374619 -0.100676104 0.0828409
0002b0 d7 02 cd bd 7f 78 14 be fd 85 2a 3d 97 33 44 3d
       -0.10010307 -0.1449909 0.041631687 0.047900762
0002c0 cc ee 7a bd 84 39 68 be 6c 47 30 be 54 ef 1f 3e
       -0.06126289 -0.2267819 -0.17214745 0.1561864
0002d0 64 9f 2e be 42 49 22 bf 8e 3a 42 3d c3 e5 9e bd
       -0.1705299 -0.6339303 0.047419123 -0.07758667
0002e0 98 0d 6b 3e 8c 80 92 be e4 e4 d4 bd 05 12 be be
       0.22954404 -0.28613698 -0.1039522 -0.37123123
0002f0 ab 2c ac bd bf 32 90 be 36 10 05 3e 9e be ea be
       -0.08406957 -0.28163716 0.12994465 -0.45848554
000300 07 6a db 3e 6b 67 d6 bd 26 a6 d8 3d a2 e7 eb be
       0.4285433 -0.10468944 0.10578565 -0.4607516
000310 36 a8 64 3e 4a 47 66 3e e3 1e 02 be df 49 64 be
       0.22329792 0.22488132 -0.12707095 -0.22293805
000320 b2 9c 9d ba 24 0b 99 bd 7a e0 8f bd 09 80 15 bd
       -0.0012024848 -0.07472828 -0.070252374 -0.036499057
000330 ae c3 eb 3d 65 e6 62 bc 26 0f 43 be 69 91 3a 3d
       0.11511932 -0.013848876 -0.19048747 0.04554883
000340 23 96 f6 bd 79 a5 55 bd 03 c1 8e bc 9c 93 9d bd
       -0.12040355 -0.05215976 -0.01742602 -0.0769417
000350 6a d9 1f ba 03 14 5c 3c c1 fa 07 be 43 0b 6a bd
       -0.0006097766 0.013432506 -0.13279249 -0.057139646
000360 24 3b 41 be aa 30 05 be e3 9e af bd ac 0b 7b bd
       -0.18870217 -0.13006845 -0.08575227 -0.061290428
000370 a4 61 55 bd 65 eb 01 be 9c 27 56 be 6d df e2 bd
       -0.05209507 -0.12687452 -0.20913547 -0.11077771
000380 26 cc 63 bd 4b 23 46 3c f0 1a c2 3c fa c9 2a bd
       -0.055614613 0.012093375 0.023694485 -0.041696526
000390 e9 93 0b be 76 c1 09 be c0 4f 78 3d 6a b3 28 be
       -0.13630642 -0.13452706 0.06062293 -0.16474691
0003a0 b9 c8 0c 3e e3 d0 cc bd d3 33 f5 bd 07 d9 14 be
       0.13748445 -0.100007795 -0.11972775 -0.14535914
0003b0 88 15 a7 bd 1f 64 41 bd f8 89 5d 3c 71 af e5 3c
       -0.08158404 -0.047214624 0.013521664 0.028037759
0003c0 f1 21 68 3d 4e 76 b6 3c 7b e3 7c bd 13 f8 79 bd
       0.056672994 0.022273209 -0.06174038 -0.061027598
0003d0 50 cd 2a 3c 94 e7 47 bd 19 d5 5a b9 a2 a7 0f bd
       0.010424927 -0.048804834 -0.00020869485 -0.035071976
0003e0 96 e9 1b be ec 8e af bd 89 10 23 3f 8b 40 df be
       -0.15225825 -0.08572182 0.63697106 -0.4360393
0003f0 99 da c9 bd fa 82 3a bd b6 f3 6e 3e 66 59 8b be
       -0.09856147 -0.045535065 0.23335156 -0.27216643

bias f4 [50]
000000 02 88 65 3d 4d 70 d7 bd 0b 35 cc bd ba fd d7 3d
       0.05603791 -0.105194665 -0.09971055 0.105464414
000010 4c f7 3b bd d5 eb 52 be a6 c4 c1 bd 9e ee 50 be
       -0.045890138 -0.20597775 -0.09461336 -0.20403525
000020 0b 75 4f 3c 9b 4c be 3d 99 e5 ab bd b9 18 dc bd
       0.012662183 0.09291955 -0.08393402 -0.10746903
000030 be 57 80 be e4 b9 b3 be 6a 87 3c bf 9b b8 4f 3d
       -0.25066942 -0.3510276 -0.73644125 0.050713163
000040 28 b4 55 3d 9d ea 26 be 6e 5c 06 be 59 84 5b 3e
       0.052173764 -0.16300435 -0.13121197 0.21437205
000050 e6 97 ab bc 1a 71 be bd a5 c1 c7 be 27 00 01 bd
       -0.020946454 -0.09298916 -0.39014927 -0.031494286
000060 fc 8e 3b be 6c 94 73 bd 9f 7e 13 be c2 37 7c 3e
       -0.18316263 -0.059467718 -0.14403771 0.24630645
000070 8d 5f 80 be f2 39 32 be 21 70 57 be b0 f2 8d 3d
       -0.250729 -0.17404917 -0.21038868 0.069310546
000080 5c 5a 10 3e 65 58 7e bd b6 0e e3 bd d1 51 10 be
       0.1409697 -0.06209602 -0.1108679 -0.1409371
000090 5d f5 4e be 80 26 92 bc dd b8 d9 be 55 79 19 be
       -0.20210786 -0.017840624 -0.42523852 -0.14987691
0000a0 00 11 94 3e 69 2b b2 bd 2c 5d 04 bd 42 14 a5 3d
       0.2891922 -0.08699686 -0.032315418 0.080605045
0000b0 7c 95 55 bd d1 9a 3b bd e3 44 34 3d 63 58 4a 3d
       -0.052144513 -0.04580194 0.044011008 0.0494007
0000c0 3b 82 a0 be 77 df 9c 3d
       -0.31349358 0.0765981

weight f4 [50, 50]
000000 19 ad 0b 3e 7c 9f a0 3d 35 96 b2 bd e2 47 0e 3e
       0.1364025 0.07842919 -0.08720056 0.13894609
000010 1e 80 f9 3d 89 71 88 3c ad ac 25 be e5 70 13 bf
       0.121826395 0.0166557 -0.16179152 -0.5759414
000020 58 1d 58 bf 25 4c 9a 3e 57 b0 dd 3b c3 13 08 be
       -0.84419775 0.3013622 0.006765406 -0.13288788
000030 04 c0 8a bd 34 96 ec bb b8 bb 2e be 4f e6 fa 3d
       -0.06774905 -0.007220054 -0.17063797 0.12250959
000040 bf 65 a0 bd 9a f1 cd 3d 03 f3 87 3d f3 63 0e be
       -0.078319065 0.100558475 0.06638148 -0.13905315
000050 c4 dc e6 be ad f4 03 bf 05 04 19 be 99 01 05 3e
       -0.45090306 -0.5154522 -0.1494294 0.1298889
000060 3c 16 a2 bd 31 5a a1 3d ed 1f 13 3d 0f 1c 0a 3d
       -0.07914397 0.07878531 0.03591912 0.033718165
000070 e1 ab da 3d 30 ad 76 bd 00 92 e3 b9 50 e0 0b 3a
       0.106773145 -0.06022376 -0.00043405592 0.00053358544
000080 13 b0 a4 3c d3 bc 55 3e cc 88 0d 3e 7e ea f3 3c
       0.02010349 0.20872812 0.13821715 0.0297749
000090 7b 13 0e bc 20 09 a5 3e 93 e6 00 3e 80 60 2f 3c
       -0.008671637 0.32233524 0.12587957 0.01070416
0000a0 65 3f cd bd 41 f2 e5 3d 64 ce fd 3d 9a 35 1a 3d
       -0.10021857 0.11227847 0.123928815 0.037648775
0000b0 ae b3 ca bd be 10 76 3e 73 e6 7c 3c 20 a3 46 3e
       -0.098975524 0.24029824 0.015435803 0.19398165
0000c0 37 7a e3 3d 7f 45 5d 3e 6a eb 11 bd e4 1f d6 bd
       0.11107295 0.21608542 -0.0356249 -0.104553014
0000d0 52 65 bc 3c 90 3e 87 bd 26 d5 d1 3b 51 38 bf be
       0.022997532 -0.0660373 0.006403583 -0.37347654
0000e0 29 1b 85 be 88 36 26 3e 1d ea 8c 3d e8 1b b1 3e
       -0.25997284 0.1623174 0.06880591 0.34591603
0000f0 fb ae 3b be 52 e3 fd 3c c4 62 4e bd bb 65 c9 be
       -0.18328469 0.030992184 -0.05038716 -0.39335427
000100 16 17 1b be 84 ff 9b be c1 e3 c5 bd 66 a0 10 3e
       -0.15145525 -0.3046838 -0.09662581 0.14123687
000110 94 c3 ab bc 43 ad 43 3e be ab f5 bd fb a0 7b be
       -0.020967282 0.19109063 -0.11995648 -0.24573128
000120 b8 d9 84 bd 86 25 f7 3d d8 00 01 be 3e 38 b6 3d
       -0.06486839 0.12067704 -0.12597978 0.08897446
000130 b8 de 08 be 41 b0 5b be 54 0b c5 bd 73 0d ef 3d
       -0.1336621 -0.21453954 -0.09621301 0.11672487
000140 00 26 b3 bd 25 0b 56 3d 54 6d 16 3e b7 16 3c bd
       -0.08747482 0.052256722 0.14690143 -0.0459201
000150 24 b5 bf 3c 78 c6 23 bd 12 2e f9 bd 0d 84 07 3e
       0.023401804 -0.039984196 -0.1216699 0.13233967
000160 fe 9d 9b be 54 fe 8d bd 40 98 cd 3e a8 9f ae bb
       -0.30393976 -0.06933275 0.4015522 -0.005329091
000170 bc 3b 52 3d eb 98 a7 bd 59 c6 f6 bd 1f 1e d8 bd
       0.0513265 -0.08183464 -0.120495506 -0.1055262
000180 36 c0 57 be b6 60 ea 3d 0d 52 b1 bd 61 46 cd 3d
       -0.21069416 0.114442274 -0.08658228 0.10023189
000190 f4 c7 09 3e f2 27 e6 3d 25 1e 9e bd b8 99 bb bc
       0.13455182 0.11238088 -0.07720593 -0.022900447
0001a0 f9 20 cb 3d b6 61 65 be 46 79 ef bd 27 d4 da be
       0.099183984 -0.22400555 -0.11693053 -0.42739984
0001b0 45 aa 9d be d2 2a 04 3e fd 1b bd 3d ae 39 6d 3d
       -0.30793968 0.1290696 0.09233854 0.057916336
0001c0 43 17 45 be df 6b be bd 2d aa 5c bd 40 81 f0 3d
       -0.19247155 -0.092979185 -0.05387323 0.117434025
0001d0 5f 95 02 be b9 5f 0a 3e ec 2f cf bb a8 a9 49 3e
       -0.12752293 0.13513078 -0.0063228514 0.19693625
0001e0 7c a1 4c be 47 fd ba be d7 5c 3c be 5a 6a 0b 3d
       -0.19983476 -0.3652136 -0.1839479 0.03403697
0001f0 b2 28 1f be 1b 1a d4 3d e3 af 56 3e 37 c7 8e be
       -0.15542868 0.10356542 0.20965533 -0.27886364
000200 67 18 35 be 2d 37 91 3d 94 0f 16 bd 61 59 88 bb
       -0.1768509 0.07090602 -0.03663595 -0.0041610454
000210 55 97 c4 bd f1 3d 35 be 37 91 ee bd db 67 54 3d
       -0.09599177 -0.1769941 -0.11648791 0.051856857
000220 5b 5e f8 bd 70 a7 62 bc 40 1f 18 be c7 f6 8f bd
       -0.12127372 -0.0138338655 -0.14855671 -0.07029491
000230 76 19 bb 3d d4 f5 9a bc c6 d5 a2 3d df f1 c2 3c
       0.09135716 -0.018916048 0.0795093 0.023796974
000240 14 87 94 bd f7 c2 25 3d bf d2 f1 3d fa b7 f9 3d
       -0.072523266 0.040469136 0.11807775 0.12193294
000250 8c 07 71 bc bf 13 00 3d 82 c2 b5 bd 19 e2 7e bc
       -0.014711272 0.03126883 -0.0887499 -0.015556836
000260 1a 91 04 be 31 ab 7a 3e 8a ce 61 bd 8b 46 03 be
       -0.12945977 0.24479367 -0.05512861 -0.12819879
000270 eb 8b e7 be d5 18 14 bf e6 67 4e be b1 5c 46 3a
       -0.45223936 -0.5785039 -0.20156822 0.00075669127
000280 01 43 40 3e b9 21 5f 3d de 55 01 bc 8c 40 85 be
       0.1877556 0.05447552 -0.0078940075 -0.26025808
000290 86 e2 21 bd 12 ce 5a 3e 69 e6 4c bd 33 d8 9a bd
       -0.03952267 0.21367672 -0.050024424 -0.07560768
0002a0 fe 8d eb 3d 0f 48 7e 3e 6f 59 a4 be 4d 04 62 be
       0.11501692 0.24832176 -0.32099482 -0.22071953
0002b0 ea cf e6 bd 7e 5d 32 be 9c c6 0d be 2e 46 32 be
       -0.11270125 -0.17418477 -0.13845295 -0.17409584
0002c0 6a da 50 3e f2 de 07 3e bf c2 17 be 08 bb 91 3d
       0.20395818 0.1326864 -0.14820383 0.071157515
0002d0 e0 f6 ac 3d a4 76 74 3c 39 21 99 3e d3 bc 0c be
       0.08445525 0.014920864 0.2990816 -0.13743906
0002e0 f7 23 b2 bd bd 8a 14 be 38 56 cb bd 60 c0 73 3e
       -0.08698266 -0.1450605 -0.09928554 0.23803854
0002f0 47 9c 01 bf c0 bb 3d 3c a5 0c 80 3d b3 5d f6 3d
       -0.50629085 0.011580408 0.06252412 0.120295905
000300 57 cb 97 3d 88 29 be bc 71 49 07 3d 26 66 04 3d
       0.07411831 -0.023213163 0.033029024 0.03232398
000310 66 99 18 3e 40 2a 48 3e f8 2f bd bd 6b 99 52 3e
       0.14902267 0.19547367 -0.09237665 0.20566337
000320 97 b6 50 bd cb ae 46 bd c2 5b 17 3c 78 96 1b be
       -0.05095538 -0.04850654 0.009238185 -0.15194118
000330 22 b7 bc 3b 48 55 fb 3d f7 9e 23 3e 85 6f 04 bd
       0.005759136 0.122721255 0.15978609 -0.032332916
000340 cb fb 98 3e 2e e4 e9 be a2 66 5f 3d eb 4c 99 3d
       0.29879603 -0.456819 0.054541238 0.07485374
000350 03 2e ac 3c 7e 4d 12 be 8a b7 5c be 17 4a 26 3d
       0.021018034 -0.14287373 -0.2155439 0.040598
000360 48 dd 8a 3d d6 7d 42 3d c2 0e c1 3c 80 0b 82 be
       0.06780487 0.047483288 0.023566607 -0.253994
000370 5e 14 8f bd bd d4 e1 be 11 58 d6 3e f4 0f 98 3e
       -0.069863066 -0.4410762 0.41864064 0.2969967
000380 c7 63 9f 3d 4b ec 7b bd a8 3f b3 3d 06 5b 0e bf
       0.07782703 -0.061504643 0.08752376 -0.5560764
000390 47 af c4 3d 42 a0 ab bd 15 1a f6 bd 10 d3 11 be
       0.09603744 -0.08380176 -0.120166935 -0.1424067
0003a0 2d c3 ed bd e0 e0 51 bd 84 84 b1 3d 32 a1 3e bc
       -0.116094925 -0.051239848 0.086678535 -0.011635112
0003b0 5d 0d 26 3e 11 6a 8b bc af 05 b7 be d9 eb ef 3c
       0.16216035 -0.01701835 -0.35746524 0.029287266
0003c0 02 e8 c0 bd 2a 7d b0 3d 5a b2 fa 3d ba 11 57 3d
       -0.09419252 0.08617623 0.12241049 0.05250714
0003d0 cc a8 6b 3c 4e 4a e7 3d 9e 7f 99 bd c3 89 04 bd
       0.014383506 0.11293469 -0.07495044 -0.032357942
0003e0 c6 e1 4a be 81 5d e3 be 40 f6 0a 3d 5f ca 27 3c
       -0.19812688 -0.44407275 0.03392625 0.01024112
0003f0 6f 6c ba 3a 4b bc bf bc 43 4b 01 be 79 b8 cb 3c
       0.001422299 -0.023405215 -0.12626366 0.024868237

bias f4 [50]
000000 d1 11 c4 bd ab 5a 34 3e 93 55 10 be 43 6d ca 3d
       -0.09573711 0.17612712 -0.14095144 0.09884121
000010 df 21 9a 3d cd f2 a8 bb 29 76 44 3e 38 40 13 be
       0.07525992 -0.0051558972 0.191857 -0.14379966
000020 f1 d0 5b 3e 46 fa 51 be 78 85 85 be 85 fa 10 be
       0.21466424 -0.20505628 -0.2607839 -0.14158066
000030 be 0f 24 3e 60 ad b9 bd a1 27 81 3e cd c1 26 3d
       0.1602163 -0.09066272 0.25225547 0.040712167
000040 6f e5 3d be 32 6a 70 be e5 05 bc be 00 81 68 be
       -0.18544553 -0.2347801 -0.36723247 -0.2270546
000050 46 bd a8 bd 39 e7 94 bd 5a ae a0 3e 1f 88 75 be
       -0.08239226 -0.07270665 0.3138302 -0.23977707
000060 c7 0e 8f 3d 9a d0 9d bd 20 aa 20 be 4a 79 5c be
       0.069852404 -0.07705803 -0.15689898 -0.21530643
000070 fb 42 dc bc 6e a2 cf 3d f2 be 95 bc a8 7e b0 bd
       -0.026887408 0.10138403 -0.018279526 -0.08617908
000080 67 15 fd 3d 4f 5c 29 3d 6a a2 15 3e 2f ef 15 bd
       0.12357598 0.041347798 0.14612737 -0.036605056
000090 fa f8 31 bd ec d1 4e be f9 89 98 3d d8 31 89 be
       -0.043450333 -0.20197266 0.07448191 -0.2679584
0000a0 13 90 e8 be 83 83 f3 bd 35 e3 39 be 71 61 1c 3e
       -0.4542242 -0.11890318 -0.18153079 0.15271546
0000b0 9f 52 18 be 0e d8 04 3e 91 f7 a9 be f9 1a 94 be
       -0.14875267 0.12973043 -0.3319669 -0.28926829
0000c0 d8 20 23 be 61 39 6a 3e
       -0.15930498 0.22873451

weight f4 [50, 50]
000000 ac 03 86 3e df 25 3e be 56 ab 56 3e e3 57 a8 be
       0.26174676 -0.18569134 0.20963797 -0.32879552
000010 68 84 bd 3e f8 65 2f be e4 50 c9 bd f7 99 db be
       0.3701508 -0.17128742 -0.09829882 -0.42890903
000020 95 a9 d4 3c 57 71 3d 3e d4 e3 00 3f 0b dd b9 bd
       0.02595977 0.18500267 0.5034764 -0.09075364
000030 2b d9 0d 3e ae 4f fe 3c f3 6d f9 3e bf ab a8 be
       0.13852374 0.031043854 0.48716697 -0.32943532
000040 70 52 cc 3c bb 00 52 3e bb b6 81 3e 0c b5 56 3e
       0.024941653 0.20508091 0.25334725 0.20967501
000050 a8 6b 9f 3d c1 fb df bd 90 7f 2c bd db 95 03 3e
       0.07784206 -0.1093669 -0.04211384 0.12850134
000060 9d 9e 8d 3d 83 f7 08 3e 6d 85 9e 3d 2b d0 e0 bd
       0.06915019 0.13375668 0.07740293 -0.10977205
000070 cd 02 c0 be 62 54 fb bd 09 12 bf 3d 93 ed c4 3c
       -0.37502137 -0.12271954 0.09329612 0.024039065
000080 d1 8a af 3e b1 16 e1 bd e7 fb 17 be 64 95 e1 bd
       0.34285596 -0.10990656 -0.14842187 -0.11014822
000090 0b 03 26 3e f4 07 e1 3c f6 e4 18 3d 5c cc 06 3f
       0.16212098 0.027469613 0.03732773 0.5265558
0000a0 40 c7 94 3e 85 c3 12 bd a5 6b ef 3e c1 3e f1 bc
       0.29058266 -0.035830993 0.46761814 -0.029448869
0000b0 96 20 ad 3d 82 4f 97 bd f0 2a bf 3d f9 3f 80 3e
       0.08453481 -0.07388212 0.093343616 0.25048807
0000c0 05 31 d0 3d 43 f1 02 be 0b ee 62 3d ba 6f fd 3d
       0.101656 -0.12787347 0.055402797 0.12374826
0000d0 66 ae c6 bd 28 13 9a 3e df 09 ec bd 74 d5 e3 ba
       -0.097012326 0.3009274 -0.1152532 -0.001738234
0000e0 46 3c bf 3e 59 a8 69 be 3d 22 a2 3d 29 19 53 bd
       0.37350672 -0.22818126 0.07916687 -0.051537666
0000f0 bd c7 15 be 66 b3 32 bd e5 b2 99 bd a1 17 ac 3d
       -0.14626975 -0.04362812 -0.075048245 0.08402944
000100 4e 88 1e be ae a3 9d 3c 65 fb 49 be 12 8f 12 3e
       -0.15481684 0.019243088 -0.19724806 0.1431239
000110 2a 3e a6 3d 44 3e b4 bd 82 a4 0a bf f0 2b 06 3e
       0.081173256 -0.08800939 -0.5415727 0.13102698
000120 75 b6 9d bd 42 46 35 3d a7 e5 33 bd 97 ac 5d 3d
       -0.077008165 0.044256456 -0.043920185 0.054119673
000130 16 f2 78 bc 70 cd a6 3d 16 35 07 3e 1e 12 81 3b
       -0.015194437 0.08144653 0.13203844 0.0039389273
000140 85 72 73 3e 8a 09 15 3e c5 f7 d4 3d 5f f5 29 3e
       0.23774154 0.1455442 0.10398821 0.16597508
000150 33 2b 26 be 5f 6e 0e 3e 07 da 46 3d 58 b2 98 3e
       -0.16227417 0.1390929 0.04854777 0.29823565
000160 1e e1 e5 3d 9a d6 41 3e e5 8e 4e be 63 ff 6e 3d
       0.11224578 0.1892952 -0.20171697 0.058349025
000170 f7 60 33 3e 6a f3 dc 3d 1a 55 b8 ba c5 c3 80 3b
       0.17517458 0.10788615 -0.0014063448 0.0039295875
000180 cd 39 cf bd 28 25 e4 be d4 2f 8b 3d 66 8a 39 bd
       -0.101184465 -0.44559598 0.06796232 -0.045298003
000190 02 ba 68 3e 23 19 e1 3d 2b d7 58 bd d9 34 0d bb
       0.22727206 0.109911226 -0.052939575 -0.0021546392
0001a0 15 3d d6 be 77 fb b9 bd b0 1b 82 bc 21 81 36 be
       -0.41843477 -0.09081166 -0.015882343 -0.17822696
0001b0 ef 82 52 3e a9 39 e5 bb 75 1a cc be 23 da e1 3c
       0.2055776 -0.006995399 -0.39863935 0.027569836
0001c0 92 a7 54 3e 1a 4e 74 3d 66 3d 45 3e 8a a4 f0 3d
       0.20767048 0.059644796 0.19261703 0.11750133
0001d0 c9 f1 1f 3d cb e6 68 be 7e ed 5e bd d6 1f 62 bd
       0.039048944 -0.2274429 -0.05442571 -0.055206142
0001e0 06 5f b4 be 08 d6 4a be 26 05 97 bc 4e 30 17 3d
       -0.35228747 -0.19808209 -0.018435072 0.0369113
0001f0 32 cb 5a 3d ca 90 d0 bd 33 66 7f 3d c8 95 96 3d
       0.05341644 -0.10183866 0.062353324 0.07352787
000200 d2 63 25 be d9 d8 6b 3d d4 26 26 3d 1a de 61 bd
       -0.1615136 0.05757985 0.040564373 -0.055143453
000210 8b 7b 46 3d 7d 56 02 bd 92 0c fe bc 88 80 8f 3e
       0.048457664 -0.031820763 -0.031011853 0.2802775
000220 2d 37 69 bd d1 88 01 3e 61 a5 8d be d3 3a 1c 3e
       -0.056937385 0.12649848 -0.27665237 0.15256815
000230 04 fc 3d be 63 e9 aa bc 19 a1 13 3e 20 86 e0 3d
       -0.18553168 -0.02086324 0.14416923 0.10963082
000240 75 18 fa 3d b1 0a 60 be ab ac 31 3e 77 bd 32 be
       0.12211696 -0.21879078 0.17351024 -0.17455088
000250 2c cd a5 3c 39 89 dd 3c 62 28 a8 3d 18 d3 e9 bd
       0.020239435 0.027042972 0.082108274 -0.11417216
000260 2d e7 81 bc ca 6c ed bc 79 29 28 be 42 35 c2 3d
       -0.015857304 -0.028982539 -0.1642207 0.09482814
000270 c4 93 64 bd a9 56 24 be 10 8f a2 3d 10 44 d5 be
       -0.055804983 -0.16048683 0.07937443 -0.4165349
000280 7e d3 9e bd 48 75 74 3d 38 1f 28 3d 8a 3f 98 3d
       -0.07755183 0.05968216 0.041045398 0.07433994
000290 ac a4 bf bd a1 3e 74 bd e3 68 32 bd 86 d3 a1 3d
       -0.093575805 -0.05963004 -0.04355706 0.07901673
0002a0 77 19 88 3d 57 e6 74 be 03 18 71 bd 8e 5e 32 be
       0.06645482 -0.23915993 -0.05886079 -0.17418882
0002b0 47 7b 98 bd da ad f6 3d 5f b5 72 be a0 c9 7d 3d
       -0.07445388 0.12044878 -0.23702 0.061959863
0002c0 21 65 03 be 90 0e a8 bd f6 c5 a5 3d 19 5d b0 bd
       -0.12831546 -0.082059026 0.08094399 -0.08611507
0002d0 2d b9 b3 bd 9e e8 e9 3d 4b 04 c7 bd f5 ea a6 bd
       -0.08775554 0.11421321 -0.09717616 -0.08150283
0002e0 2c 6c e0 3c b5 0c c0 bd d0 fb 86 3c 40 b3 5d 3c
       0.02739533 -0.09377424 0.016477495 0.013531506
0002f0 19 b5 3c 3d 2a 7b 4b be cb 04 96 be 66 28 f8 3d
       0.046071146 -0.19871202 -0.29300532 0.121170804
000300 cd 9d 1b 3c 96 f8 85 bd 91 05 fd bd d1 33 73 3d
       0.009498072 -0.06541555 -0.12354577 0.059375588
000310 bb 94 1b be 24 0c 36 bd 0e ee 86 bd 83 56 28 be
       -0.15193455 -0.044445172 -0.06588374 -0.16439252
000320 b6 db 0a be b5 90 d3 be da a7 dd bd a3 06 1f 3d
       -0.13560376 -0.4132134 -0.10823031 0.03882469
000330 a3 7d e9 3e 14 07 6b bd 81 b1 12 3f 42 6d 73 be
       0.45603666 -0.057379797 0.573021 -0.23772147
000340 9f 08 8f be a1 dd dd 3b c5 a9 a7 3d df ca c0 3d
       -0.27936265 0.006770805 0.08186678 0.094136946
000350 6a 0e d2 be a0 40 e8 3d 88 bf ba 3c 66 ef 6f be
       -0.41026622 0.11340451 0.022796407 -0.23431167
000360 0d d9 e3 bd b0 cc 11 3f e7 06 86 bd 65 22 33 be
       -0.111253835 0.56952953 -0.06544285 -0.17493589
000370 32 2a b4 be 75 c1 b0 3e 42 ca c7 be 04 44 a9 3b
       -0.35188442 0.34522596 -0.39021498 0.005165579
000380 62 83 f4 bc 2f 3d 16 bc 57 df 97 bc 42 0d 14 bd
       -0.029847804 -0.009169861 -0.018539114 -0.036145456
000390 1d 8f b0 3d 6e 75 e6 be 58 99 e3 be b4 ec 15 3d
       0.08621047 -0.45011467 -0.4445293 0.03660269
0003a0 09 6f cc bd c9 9c 5d be 2e 15 4a bf f2 20 99 be
       -0.09982116 -0.2164184 -0.7893857 -0.29907948
0003b0 43 60 8a bd 30 aa 87 be 86 e0 38 be 58 d3 ce 3e
       -0.06756642 -0.2649703 -0.18054399 0.40395617
0003c0 34 3a 62 3e 7e 11 75 3d 79 33 bc 3e eb 08 e0 bb
       0.22092515 0.059831135 0.3675802 -0.0068370006
0003d0 c8 e7 af 3e 49 65 46 be 48 39 08 bd 46 f6 2b be
       0.34356523 -0.19374575 -0.033257753 -0.16793165
0003e0 55 cc f6 3d e5 e8 c6 bd 5b dd 24 3e 3d 47 01 3b
       0.12050692 -0.0971239 0.16100065 0.00197263
0003f0 ab 21 2d 3d 12 36 05 3d 52 d5 b5 be 0b c4 9d 3d
       0.042268436 0.03252227 -0.35514313 0.07703408

bias f4 [50]
000000 29 8f 39 be c6 70 49 3e 37 f5 ac 3d e6 39 d4 bd
       -0.18121018 0.19671926 0.084452085 -0.10362606
000010 07 0b 0c 3e 35 54 8f be 74 1b fa bd eb b1 01 3e
       0.13676082 -0.27993932 -0.122122675 0.12665527
000020 45 82 28 be 86 0f 81 bc 11 b7 8d bd f0 0c db bd
       -0.16455944 -0.015754472 -0.06919683 -0.10695827
000030 76 8e 45 be 87 69 8b 3d 8d e2 23 3e e7 0e 09 be
       -0.19292626 0.06807237 0.16004391 -0.13384591
000040 80 32 14 be f3 c8 4b be 75 e2 0f bd 89 ac ed 3c
       -0.14472389 -0.19900875 -0.035128076 0.029012935
000050 51 83 45 3e 80 c0 e6 bd bf e8 b0 3d ec 6b 55 bd
       0.19288374 -0.11267185 0.08638143 -0.052104875
000060 d4 8e a9 3b a2 08 79 3c 41 fd ac bd c1 7b d0 3d
       0.005174497 0.015199812 -0.08446742 0.10179854
000070 29 bc 88 be 2b dc 97 3d f2 f4 3f bd 7d 2e 5e be
       -0.26706055 0.074150406 -0.046864457 -0.21697421
000080 c6 62 17 bf bc a4 8f ba f3 04 da bc 3c 83 26 bf
       -0.5913509 -0.0010959129 -0.026613688 -0.65044
000090 ae 14 c2 bd 38 bc 20 be b3 71 03 be 6d 2c ec bd
       -0.094766006 -0.156968 -0.12836342 -0.11531911
0000a0 b7 c1 f5 bc bb f7 bc 3d f3 76 03 be 69 d8 26 bd
       -0.029999597 0.09226938 -0.12838344 -0.04073373
0000b0 7d 88 28 be 0a 65 2f be 3a 6b 9e bd f2 36 af bd
       -0.16458316 -0.17128387 -0.077352956 -0.08555402
0000c0 48 6a 48 be ed 91 03 3e
       -0.19571793 0.12848635

weight f4 [50, 50]
000000 e7 04 ae 3d 97 6b 66 bd 0b 41 f3 bd 7c ec b7 3d
       0.08497029 -0.05625495 -0.1187764 0.08980653
000010 54 ce b2 be 33 00 c0 bd 63 b2 78 3d 7e 42 91 be
       -0.3492304 -0.09375038 0.060716998 -0.28371042
000020 84 4b d9 3c 7d 24 5e be 75 69 64 bb 2e bb 41 be
       0.026525266 -0.21693607 -0.0034852896 -0.1891906
000030 e5 dd 49 bd 89 a4 fb 3d 95 34 8d bd 84 b4 33 3d
       -0.04928388 0.12287242 -0.06894795 0.043873325
000040 ac 21 ad bd 97 f4 de 3c 4c ea 49 3c 56 c3 ac 3b
       -0.08453688 0.027216239 0.012323927 0.0052723093
000050 d9 cd 7c bd 72 fc 8d 3d 7b 24 dc bd c8 3b 9f bd
       -0.06171975 0.06932916 -0.107491456 -0.07775074
000060 51 2c 9b 3d ad 59 35 be 4a 99 af 3d 76 b1 ad bc
       0.07576812 -0.1770999 0.085741594 -0.021202784
000070 46 a8 2b 3c 52 71 48 be 56 3b df bc 51 ad 6f 3d
       0.010477131 -0.19574478 -0.027249973 0.058514897
000080 2d 4b 4d 3d aa c9 87 bd 18 c7 8d 3d e1 dd 76 3e
       0.05012052 -0.06630261 0.0692274 0.24108078
000090 60 5e 03 bc bc a6 b2 bb 79 ee 4b 3e c7 3b f0 bd
       -0.008018106 -0.005452005 0.19915189 -0.117301516
0000a0 d5 e5 9c be dd 2a c1 3d 12 8d 86 bd 7c d9 e2 bd
       -0.30644098 0.09432004 -0.06569876 -0.11076638
0000b0 00 6a 0c 3e 43 76 79 3d a9 65 da 3d d9 7e b7 bc
       0.13712311 0.0609038 0.106639214 -0.022399353
0000c0 f0 57 10 3e 06 95 79 bd 21 30 c4 3d 1b 98 9a 3e
       0.14096045 -0.060933135 0.09579492 0.30194172
0000d0 0a f3 06 bb e2 0a 83 3e 61 53 21 3e e8 b6 05 be
       -0.002059164 0.2559424 0.15754463 -0.13058054
0000e0 9e 0c 3d be 15 6c 86 3e c6 58 ce bc a0 70 77 be
       -0.18461844 0.26254335 -0.025188815 -0.24164057
0000f0 4f 92 ba 3d ae 52 a0 3c 1c b3 1c be 54 aa d6 3d
       0.091099374 0.019570675 -0.153027 0.10481706
000100 3d 2e 92 3e 10 62 9e 3d ad 05 a1 bc f5 0e 14 3e
       0.28550902 0.07733548 -0.019656027 0.1445883
000110 23 e2 b4 3d cb b9 63 3e 9d b1 b1 3d 14 29 ee 3c
       0.08832195 0.22238843 0.08676455 0.029072322
000120 59 18 94 3e bc 00 52 3d e6 8f 8a 3e fb 1a 14 be
       0.28924826 0.05127023 0.2706291 -0.14463417
000130 70 9b e7 3a ef 8e c6 3e 2f a0 dd 3e a1 6a 2d bd
       0.0017670225 0.38780925 0.43286273 -0.042338017
000140 b7 47 14 3e 6c 6b 14 be 31 2d 88 3e 7b 2f dc bc
       0.14480482 -0.14494103 0.26596978 -0.02687811
000150 4a a0 fe bd f4 35 ec 3e 61 e4 24 3e e0 d9 94 bc
       -0.124329165 0.46134913 0.16102745 -0.018170297
000160 a5 c7 d2 bd f9 1c fc 3d 22 16 85 bd 9e d2 72 be
       -0.102919854 0.123102136 -0.06498362 -0.23713157
000170 4f 6b d3 3d 9c 43 9a bd 25 c8 a6 3d d1 28 e4 3d
       0.10323202 -0.07532427 0.08143643 0.111405976
000180 23 f0 13 bb 8f 60 27 bd 5f f5 6b bd 97 26 d6 3d
       -0.0022573553 -0.04086357 -0.05760705 0.10456579
000190 61 1c c5 bc 93 46 49 be 69 8a ba bd 6a 68 92 bd
       -0.024061384 -0.19655828 -0.09108431 -0.07148822
0001a0 d7 96 a1 bc b2 63 ef bd 7f 37 89 bd 94 1b 2d be
       -0.019725246 -0.11688937 -0.06700038 -0.16905051
0001b0 be 13 5c 3d 79 c2 aa 3c de 41 15 3e d9 a1 13 3a
       0.053729765 0.020844685 0.14575908 0.0005631722
0001c0 b0 9c 4d 3e 23 9e 4f bd 6d c6 f2 3b a6 06 24 3c
       0.20079303 -0.05068792 0.007408908 0.010011351
0001d0 bb 25 e1 3c 55 42 81 3e ea 68 8e bb 32 9c a1 bd
       0.027483812 0.2524592 -0.004346003 -0.0789112
0001e0 f5 cc 0b be 8d ff e8 bd f4 38 1d bd b7 5b 82 be
       -0.13652404 -0.113768674 -0.038384393 -0.25460598
0001f0 ea 32 ae bd 14 61 3d 3e f7 ce 6d bc 0e 29 27 be
       -0.08505805 0.18494064 -0.014514676 -0.16324255
000200 23 b4 22 bd 0a 7d 1e 3e 38 82 2e bd 45 18 fb 3d
       -0.039722573 0.15477386 -0.042604655 0.122604884
000210 d0 05 2b 3d 1b de 04 be dc da b6 3d 1f 36 38 bd
       0.04175359 -0.12975352 0.08928463 -0.04497349
000220 22 5f 39 3e 57 ee 52 bd d4 c3 f6 3c 6e 35 04 3e
       0.18102697 -0.05149683 0.030122675 0.12911007
000230 20 92 58 bd 99 b7 f4 3c b4 6b 42 be d3 38 14 3e
       -0.05287373 0.029872702 -0.18986398 0.14474802
000240 dd ca a7 bd db 39 e9 bd c3 f2 cd bc 60 4a 19 3d
       -0.0819299 -0.11387988 -0.025140172 0.037424445
000250 24 af 63 be 82 bc d0 bd bd b4 07 3c 8d 3e dd bd
       -0.2223478 -0.10192205 0.008282837 -0.10802946
000260 4d c1 3f 3e 66 c8 93 3d d3 16 8a bf 1f a4 5e be
       0.18726082 0.07215957 -1.0788215 -0.21742295
000270 48 dc b9 be b2 89 04 3e 40 5e c0 3c 04 33 98 be
       -0.36300874 0.12943152 0.023482442 -0.29726422
000280 e5 64 4f be e3 5b 4a 3e 6b f8 c9 3d 89 52 dc 3d
       -0.20253332 0.19761615 0.09861835 0.1075793
000290 a4 c4 d8 3d 2e be 4d be b5 9a 39 be 35 13 81 3e
       0.10584381 -0.20092079 -0.18125422 0.25209966
0002a0 f4 4f 32 be 49 ab cd bd c4 31 8d bd e9 cb ce 3d
       -0.17413312 -0.10042436 -0.06894258 0.100974865
0002b0 89 03 36 bb e6 0d 1a 3e f5 c6 4b 3e 93 95 2d 39
       -0.0027773103 0.15044364 0.19900115 0.00016554286
0002c0 d7 31 c7 bd 1f e6 f2 3d 01 e1 a7 3e 1e 52 16 bc
       -0.09726303 0.11860298 0.32788852 -0.009174852
0002d0 6d 55 47 3e 9d fd ca bd 64 fd 00 3f ae 6b 22 3e
       0.19466181 -0.09911654 0.50386643 0.15861389
0002e0 b6 e2 dd bc 88 a3 bf 3e bb aa 05 3e 50 55 94 bd
       -0.027085643 0.37429452 0.1305341 -0.072428346
0002f0 aa 0d 39 be 02 f0 d2 3d 52 ea a3 be ea 20 ac 3e
       -0.18071619 0.10299684 -0.3201471 0.3361886
000300 dd df b8 3d 0d 5f b7 3d 21 94 04 be 18 68 0a be
       0.090270735 0.089536764 -0.12947132 -0.13516271
000310 6f 52 e5 bd 8b fc ad 3d ea a4 1d be 4d 81 a6 3e
       -0.111973636 0.084954344 -0.15394941 0.32520524
000320 5f 5b 60 3e 02 f5 88 3c 1f 60 ad bd 8c d1 8e 3e
       0.21909855 0.016718391 -0.08465599 0.27894247
000330 6d 96 2d be c1 de f4 bd 4c fb 87 bb f6 ec 0a bd
       -0.16951914 -0.119565494 -0.00414983 -0.03391739
000340 7a 4b 6f 3c dc fe a9 3e 62 3c b5 3c eb 46 84 3d
       0.014605397 0.33202255 0.02212352 0.06458839
000350 08 e1 59 3c ed 90 6b bd 6a 57 16 be df d7 a7 3d
       0.013298281 -0.05751126 -0.14681783 0.08195471
000360 ee 1b 6a 3d 62 30 01 3e 57 79 0c bb 33 fd 02 3e
       0.057155542 0.12616113 -0.002143463 0.127919
000370 7b b7 ff bd 20 f6 3a 3e 51 9a c8 bd 12 f8 5f bd
       -0.12486168 0.18257952 -0.097950585 -0.054679938
000380 bf 6b a4 bd 8c 02 af 3d a7 e1 b3 bd d6 76 d8 bd
       -0.080283634 0.08545408 -0.08783274 -0.10569541
000390 7c 4d d6 bc b0 f7 1c 3e 8f 53 28 3c 42 8e 43 be
       -0.026159994 0.1532886 0.010273828 -0.19097236
0003a0 38 ae 78 3e 9d 98 ee 3d 63 5a 9d bd c9 a4 05 3e
       0.24285209 0.116502024 -0.076832555 0.13051142
0003b0 a4 aa cc bc 3c 03 22 be d2 fc 0d be af eb 46 bd
       -0.024983712 -0.15821546 -0.13865975 -0.04856461
0003c0 f2 73 72 3d 3c 35 07 3e a8 ef 03 3e b5 d1 1e 3d
       0.059192605 0.13203901 0.1288439 0.03877421
0003d0 0b 73 bf 3d 39 ab 51 3d 5a ab fb bd cd 69 81 bc
       0.093481146 0.05118868 -0.12288542 -0.01579752
0003e0 59 8b c9 bd 45 a2 d9 bc be 33 58 be 39 4f c9 3c
       -0.098410316 -0.026566634 -0.21113488 0.02457391
0003f0 8b b9 df bc e0 db 14 be 67 69 01 3e 98 7d b6 3d
       -0.027310153 -0.14537 0.12637864 0.08910674

bias f4 [50]
000000 a7 e3 93 3d 31 a5 c7 be b0 1c b6 3e ea 92 2e 3e
       0.072211556 -0.3899322 0.35568762 0.17048231
000010 92 eb 8c be 81 eb 7c 3e ae 54 0c bb d5 f9 45 3d
       -0.27523476 0.24699213 -0.0021412778 0.04833396
000020 93 61 9a 3d 5d 6e 39 be 09 ba 06 be 08 86 74 3d
       0.07538142 -0.18108507 -0.13156904 0.059698135
000030 72 c1 00 3d 36 3b 30 3c 1b f9 b9 3d f1 81 3f be
       0.031434484 0.0107563045 0.09080716 -0.18701912
000040 d2 42 a5 be 72 32 89 3d aa f2 a4 bc 93 6d 4a 3e
       -0.32277542 0.06699075 -0.020135242 0.19768362
000050 a5 72 12 bd b0 85 e9 3d e8 f4 d5 39 4f f6 0c bb
       -0.035753865 0.11402452 0.00040808995 -0.0021509116
000060 80 8c 7a 3e 93 0e 0a 3d 23 e3 df 3e 77 74 c9 be
       0.24467659 0.033705305 0.4372798 -0.39346668
000070 c1 ab f7 ba a1 2c 08 be 30 70 eb 3d e6 e2 1b bc
       -0.0018895791 -0.13298275 0.114960074 -0.009514546
000080 11 91 9f bd b2 ca 46 be 11 4c cc bd cf 35 18 3e
       -0.07791341 -0.1941326 -0.09975446 0.14864276
000090 d3 3c 7a 3e 92 4e bb bc e0 38 b5 bb bd 2f 3a be
       0.24437265 -0.022864614 -0.0055304617 -0.18182273
0000a0 ba 7f 0e be 65 db 9a 3d c0 30 62 3e df 9d 06 be
       -0.13915911 0.075613774 0.22088909 -0.1314616
0000b0 65 30 3d 3e 36 0a 46 3e 0b e7 a2 be cf 42 98 bd
       0.18475492 0.19339833 -0.31816897 -0.07434618
0000c0 1b 70 0d be 64 25 42 3e
       -0.13812296 0.18959576

weight f4 [50, 51]
000000 34 55 32 be f7 c2 a7 3e 67 b7 98 be 05 67 24 3e
       -0.17415315 0.32765934 -0.29827425 0.16054924
000010 79 0b 20 3e 64 83 6b 3d ca 30 2a be d8 d2 29 bd
       0.15629376 0.05749835 -0.16620174 -0.041460842
000020 42 30 cf 3e 76 ed 15 3d 41 aa 80 3a 8f 27 9f be
       0.40466505 0.036603414 0.0009816365 -0.31084868
000030 9e 69 fc 3c c1 0f 1e 3e 93 49 db bc 17 61 94 3d
       0.030812081 0.15435697 -0.026768481 0.07245081
000040 cc 0e 1b bd 9b ea fe 3c 60 45 09 bd 40 57 ff 3d
       -0.03785591 0.031117728 -0.033513427 0.124678135
000050 73 1d d0 3e af 84 b3 3d d2 20 51 be 5a 5d dd 3d
       0.40647468 0.08765542 -0.20422676 0.10808821
000060 67 9e f8 bd 2a e4 29 3d 48 4c 4f 3c f1 93 81 3e
       -0.12139588 0.04147736 0.012652464 0.25308183
000070 f9 57 a1 3d 21 ce 14 be 41 da 42 3d 2a 17 e2 3d
       0.078781076 -0.14531757 0.047571424 0.110395744
000080 2e b7 07 3d ad b7 2b bd 7a b6 7d bd 99 aa cb 3d
       0.03313368 -0.041923214 -0.0619416 0.09944648
000090 cc 9a 0e 3e 10 8c 23 be 7a a8 7d be 67 e6 83 be
       0.13926238 -0.15971398 -0.247713 -0.2576172
0000a0 89 61 4b bc d3 13 2a 3e 8c 3e 22 bd 6b 74 76 be
       -0.012413391 0.16609125 -0.03961043 -0.24067847
0000b0 96 78 01 be df 79 d7 bd bb cd c9 3d 08 9a 0f bd
       -0.12643656 -0.10521292 0.09853693 -0.035059005
0000c0 d0 89 ca bc e7 36 17 3e 61 34 89 3f 29 7a 79 be
       -0.024723917 0.14767037 1.071911 -0.24363007
0000d0 29 d4 64 bd 6c 0a 7a 3e 37 b4 c7 bd c7 12 91 3d
       -0.055866394 0.24418038 -0.0975117 0.070836596
0000e0 7b 7f 21 be 0c 76 dd 3d 93 69 00 3e 84 e5 cb bd
       -0.15771286 0.10813531 0.12540273 -0.09955886
0000f0 45 f9 82 3d 5c a0 4b bd 46 62 89 bd aa 50 34 bb
       0.06395201 -0.049713477 -0.06708197 -0.00275139
000100 c2 73 f1 be 4c 66 17 3e 49 0c 49 3e 04 57 45 be
       -0.4715863 0.14785117 0.19633593 -0.19271475
000110 5d 5b 3a 3c d7 cb 3e 3e 48 48 4b be c7 d7 0a be
       0.011374322 0.18632446 -0.19851792 -0.13558875
000120 c6 a3 5f be 59 66 f3 bb 30 6e 42 3d 45 4f e7 3c
       -0.21839818 -0.0074279723 0.047468364 0.02823604
000130 b8 6f e7 3d d2 53 5a 3e c7 bc c0 3d 42 a4 9b bc
       0.113006055 0.21321037 0.094110064 -0.018999223
000140 36 47 0a be 62 40 0d bd 15 13 33 3e 8f 14 c9 3c
       -0.13503727 -0.03448523 0.17487748 0.024545936
000150 02 d5 cb 3e 18 ae 8c 3d 3c 60 22 be 27 0e 8a 3d
       0.3981095 0.06869143 -0.15857023 0.067409806
000160 21 91 da bc 74 c8 49 be 6d 52 15 3e e7 29 e2 3e
       -0.026680531 -0.19705373 0.14582224 0.44172594
000170 1f 4e 8c be 5a 78 fd bc 7d 42 02 bd b9 2d 78 be
       -0.27403352 -0.030941177 -0.03180169 -0.24236192
000180 36 c6 bf be b6 d9 69 be e1 72 22 3e 7f fd 90 be
       -0.3745591 -0.22836956 0.15864135 -0.28318402
000190 8e 2e fb be 07 21 c5 3e 60 d6 ec 3e 97 b8 e3 bd
       -0.49058956 0.3850176 0.46257305 -0.11119192
0001a0 7e 0d 13 3e 2b ad f2 3d ff 0b ff 3d f2 18 97 3e
       0.14360616 0.118494354 0.1245346 0.2951122
0001b0 7e 8f e8 be 45 39 a5 be 27 bb 01 be 95 09 ac 3d
       -0.45421976 -0.32270256 -0.12669049 0.08400265
0001c0 35 41 c3 be d2 0a 44 3d f2 a6 cf 3d c0 48 6f be
       -0.38135687 0.04786188 0.10139264 -0.23367596
0001d0 08 ee 99 3e ba c2 a4 3e 5f 74 cc bd 5b e3 17 bd
       0.30064416 0.32179815 -0.099831335 -0.037082057
0001e0 95 0b 37 be 61 7e 5f 3e 2a 9a 87 3e ba 61 62 3e
       -0.17875512 0.21825553 0.26484805 0.22107592
0001f0 71 c0 4b 3e f2 0f 00 3e 5c 09 84 3d 9e 74 c3 bc
       0.1989763 0.12506083 0.06447098 -0.023859318
000200 25 d1 2b 3e 2c e2 8a 3d ab ea a4 be 51 09 0b bd
       0.16779001 0.0678142 -0.32210287 -0.03394443
000210 65 11 31 3e 4d aa 0a 3d 6c 18 b3 3d 12 51 de 3e
       0.17291792 0.033853818 0.087448925 0.43421227
000220 80 d9 04 3c 30 38 2a be 67 13 a8 3b bb ff 36 3e
       0.008108497 -0.16622996 0.005129266 0.17870991
000230 99 50 9f bd 26 1c 2b bf be af 21 3e a7 30 ac 3b
       -0.07779045 -0.66839826 0.15789697 0.0052548232
000240 83 6f 22 be 40 81 69 be 54 bc 3f 3e 54 6e 94 be
       -0.15862851 -0.22803211 0.18724185 -0.28990424
000250 55 82 c1 bd d2 c4 27 3e 91 67 ec bd b2 d4 c7 be
       -0.09448687 0.16383675 -0.11543191 -0.3902946
000260 eb 45 72 3f d1 75 04 3e c0 52 f8 3d aa 82 84 be
       0.94637936 0.12935568 0.12125158 -0.2588094
000270 bd fb e3 bd 6f e6 54 3d 96 c6 04 be de b1 c0 bd
       -0.11132 0.05197757 -0.1296638 -0.094089255
000280 a1 36 ca bc e1 f3 b8 3d 7c b3 29 bd e1 15 2f be
       -0.024684252 0.09030891 -0.041430935 -0.1709819
000290 ff 75 6f 3e 28 b5 1f 3e f1 74 67 bb b7 1d c2 3e
       0.23384856 0.1559645 -0.0035317505 0.37913296
0002a0 96 7a a4 3d 3c a0 b9 3a a2 c8 0a be e1 f3 20 be
       0.08031194 0.0014162133 -0.13553098 -0.15718032
0002b0 3d c8 f4 bd da ae 05 be cb 49 12 be 57 5a 01 3e
       -0.11952255 -0.13054982 -0.14285962 0.12632118
0002c0 f6 2a ca 3d 50 67 28 3d 6b c1 39 3d d0 11 32 be
       0.098714754 0.04111415 0.045350473 -0.17389607
0002d0 88 a4 15 be 38 93 1a be 44 fc c7 bd a1 03 b1 3c
       -0.14613545 -0.15095222 -0.09764913 0.021608176
0002e0 53 42 72 be 69 33 0e be aa 4e 8d bd 94 ea 85 bd
       -0.23658113 -0.13886799 -0.068997696 -0.06538883
0002f0 fa 41 ab bd 1f 7a ab be 7f 07 1f be b7 cb 50 3e
       -0.083621934 -0.33491609 -0.15530203 0.20390211
000300 fb ae 8c 3d cf 9c 53 3d a9 23 7c 3d 6d a7 f6 3d
       0.068693124 0.051663216 0.061557446 0.12043653
000310 ca b5 fd 3d 56 4b 8b 3d e1 ed cd bd 3c 9b 92 bd
       0.12388189 0.068014786 -0.100551374 -0.07158515
000320 25 8a d8 bc 74 f0 8e 3e 17 2a ee 3c 8d 4e a3 bf
       -0.02643306 0.27917826 0.029072804 -1.2758347
000330 07 5a 37 bd 12 31 6c 3e 99 83 17 be f7 c4 bb bd
       -0.04476359 0.23065594 -0.14796294 -0.091684274
000340 d8 17 c1 bd 32 0e f9 3a dd f1 93 3d 2c 80 2e be
       -0.09428376 0.0019001423 0.07223866 -0.17041081
000350 88 e2 f4 3d 93 02 9c bb 27 78 60 3d a3 9e 13 3e
       0.1195727 -0.004761049 0.054802086 0.14415984
000360 54 21 9a bd 18 b7 8c 3c 9d 48 40 3e 37 9d 47 3c
       -0.07525888 0.01717715 0.187777 0.012183479
000370 ed 79 66 3e 4c 27 0c be bc a6 96 bd 2d 0a 05 be
       0.22507448 -0.13686866 -0.07356021 -0.12992163
000380 e9 b7 0c be 2d 39 4b 3d ed 26 03 3e cd 60 07 be
       -0.13742031 0.049615074 0.12807818 -0.1322052
000390 e4 4b 91 bd 2c bc 03 be bc fc 7c be d8 64 1a 3e
       -0.07094553 -0.1286475 -0.24705786 0.15077531
0003a0 25 f4 11 be 5a af 87 be b9 71 39 be fa 9a 8c be
       -0.1425329 -0.2650097 -0.18109788 -0.27461988
0003b0 40 1f 97 3e 95 27 1a 3e 60 ac 76 3c 9e 8c 70 be
       0.2951603 0.15054162 0.015055746 -0.23491141
0003c0 f9 07 ab be 2c f1 16 bd ba 64 47 3e e1 8e 85 3d
       -0.3340452 -0.036851093 0.19472018 0.065213926
0003d0 07 37 4c 3d 30 ae 58 be 90 be 2e be 04 93 a9 3e
       0.049857166 -0.21160197 -0.17064881 0.33119977
0003e0 9d bf 80 3e b3 cb a1 3c 49 b5 37 3d 7a 25 2b 3d
       0.2514619 0.019750452 0.04485062 0.041783787
0003f0 ba 74 c3 3d 1f 5c 73 bd 59 58 d2 bf e1 c8 bd bd
       0.09543748 -0.059414025 -1.6433212 -0.0926683
